…
                metrics=["accuracy"])
#+END_SRC

#+RESULTS:

#+BEGIN_SRC jupyter-python :kernel python :file /home/user/github/Study/Playground/CNNVisualize/.ob-jupyter/6mDNky.png :file-path "./CNN.py"
  y_train = kr.utils.to_categorical(y_train, num_classes)
  y_test = kr.utils.to_categorical(y_test, num_classes)

  model.summary()
#+END_SRC

#+RESULTS:
#+begin_example
  Model: "sequential_1"
  _________________________________________________________________
  Layer (type)                 Output Shape              Param #
  =================================================================
  conv2d_1 (Conv2D)            (None, 28, 28, 32)        320
  _________________________________________________________________
  max_pooling2d_1 (MaxPooling2 (None, 14, 14, 32)        0
  _________________________________________________________________
  conv2d_2 (Conv2D)            (None, 14, 14, 64)        18496
  _________________________________________________________________
  max_pooling2d_2 (MaxPooling2 (None, 7, 7, 64)          0
  _________________________________________________________________
  conv2d_3 (Conv2D)            (None, 7, 7, 128)         73856
  _________________________________________________________________
  max_pooling2d_3 (MaxPooling2 (None, 4, 4, 128)         0
  _________________________________________________________________
  dropout_1 (Dropout)          (None, 4, 4, 128)         0
  _________________________________________________________________
  flatten_1 (Flatten)          (None, 2048)              0
  _________________________________________________________________
  dense_1 (Dense)              (None, 625)               1280625
  _________________________________________________________________
  dropout_2 (Dropout)          (None, 625)               0
  _________________________________________________________________
  preds (Dense)                (None, 10)                6260
  =================================================================
  Total params: 1,379,557
  Trainable params: 1,379,557
  Non-trainable params: 0
  _________________________________________________________________
#+end_example

#+BEGIN_SRC jupyter-python :kernel python :file /home/user/github/Study/Playground/CNNVisualize/.ob-jupyter/MoLvt8.png :file-path "./CNN.py"
  model.fit(x_train, y_train,
…
